softmax_regression_scripted.pt (torch, 38269 bytes, 2 tensors)

weight f4 [10, 784]
0	0xbb833113	-0.004003653
1	0x3cacd63a	0.021098245
2	0xbc62905d	-0.013828364
3	0xbbd647d7	-0.0065393257
4	0x3cd52f0a	0.026023407
5	0x3c500b16	0.012697956
6	0xbc17d879	-0.00926792
7	0x3d2ff0f0	0.042954385
8	0xbc99f4bf	-0.018793462
9	0xbcb1ff50	-0.021728188
10	0x3d1ae4dc	0.037815914
11	0x3cfb8e4a	0.030707497
12	0xbbdf0d2c	-0.00680699
13	0x3cbbe93e	0.022938367
14	0xbc0a5dc9	-0.008445212
15	0x3d3a6465	0.0455059
16	0xbcad7e19	-0.021178292
17	0x3d3fa91d	0.04679214
18	0x3ba60ac4	0.0050672013
19	0xbc2bd5e4	-0.010488007
20	0x3cf45183	0.029824024
21	0xba96cc30	-0.0011504944
22	0xba25c6f4	-0.0006323897
23	0x3ccedd86	0.025252115
24	0xbc9365c6	-0.017992865
25	0x3cd70d41	0.026251437
26	0x397f0bf1	0.00024323144
27	0xbc814d87	-0.015784038
28	0x3c05d851	0.00816925
29	0xbcb27f60	-0.021789253
30	0xbc4958c2	-0.012289228
31	0xbc87f78d	-0.016597534
32	0x3c8a2a5a	0.016865898
33	0xbc9241a3	-0.017853564
34	0x3cb8f661	0.02257842
35	0xbc26a999	-0.010172271
36	0xbc69600d	-0.014244092
37	0xbc1fa707	-0.009744412
38	0x3cb56b0c	0.02214577
39	0xbc2328c2	-0.009958448
40	0x3ce47cf0	0.027891606
41	0x3d5b0b2e	0.05347746
42	0x3cbf5add	0.023358757
43	0x3d2229ae	0.03959053
44	0x3d848bf6	0.06472008
45	0x3c97f582	0.018549684
46	0x3bb9f4d9	0.00567494
47	0xbba9b122	-0.0051785866
48	0xbca69729	-0.02033575
49	0x3b1511c2	0.002274618
50	0x3c1efeff	0.0097043505
51	0xbc1fbbc8	-0.00974936
52	0x3ad9a05d	0.0016603578
53	0x3d3415ba	0.043966033
54	0x3b692a78	0.0035578292
55	0x3c1c5d7e	0.009543775
56	0xbcb1a9e0	-0.021687448
57	0x3c1eb989	0.00968779
58	0x3c4a5c15	0.012351056
59	0x3cc3824f	0.023865847
60	0x3d2869e5	0.041116614
61	0x3c813004	0.015769966
62	0xbd001775	-0.03127237
63	0x3bc66db2	0.006055557
64	0xbca5f27a	-0.020257223
65	0x3b88cd99	0.0041749
66	0x3c1eeecb	0.009700487
67	0xbc81faaf	-0.015866606
68	0x3c0741b2	0.008255409
69	0xbc2e5bf9	-0.010642045
70	0xbd5d3dba	-0.054013945
71	0xbd6d22d0	-0.057894528
72	0xbd0e9f91	-0.034820143
73	0xbd5b7cc3	-0.05358578
74	0xbbbc037c	-0.00573772
75	0xbce2b71b	-0.027675202
76	0xbcc291c3	-0.023751145
77	0xbc101fc1	-0.008796633
78	0x3bc67914	0.006056914
79	0x3bda4773	0.0066613494
80	0xbc4e99ec	-0.01260994
81	0xba8580e6	-0.001018551
82	0x3c7bdf02	0.015372993
83	0xbb638406	-0.0034716143
84	0x3c9b7b68	0.018979743
85	0x3d321ffc	0.043487534
86	0x3bd1b0bc	0.006399242
87	0xbc62fa17	-0.013853571
88	0xbc99ff80	-0.01879859
89	0x3988f581	0.00026122856
90	0x3af14e62	0.0018410201
91	0xbd5256ef	-0.051352438
92	0xbc1f4df8	-0.009723179
93	0xbd2951fc	-0.041337952
94	0xbb82d104	-0.0039922018
95	0x3b00528c	0.0019580452
96	0x3c2f1a73	0.010687458
97	0x3d0e3c20	0.03472531
98	0x3da91e42	0.08257724
99	0x3d3c2e7c	0.04594277
100	0x3d35fec1	0.044432405
101	0x3ca499e0	0.020092905
102	0xbd9609ce	-0.07326089
103	0xbd496047	-0.049164083
104	0xbd6df3d7	-0.058093872
105	0xbd9b7460	-0.07590556
106	0xbcb724ab	-0.022356352
107	0x3c8b60d3	0.017013943
108	0xbd1288d1	-0.03577501
109	0x3b1808d8	0.002319863
110	0xbb6944b8	-0.0035593938
111	0xbb57165a	-0.003281972
112	0xbc90758d	-0.017634178
113	0xbc839ed9	-0.016066955
114	0x3ce5f618	0.028071448
115	0x3d1f12de	0.038836353
116	0xbb9825f3	-0.004643196
117	0xbca1aab9	-0.019734727
118	0xbc35eb09	-0.0111034
119	0x3c54609b	0.012962486
120	0x3bbb7f46	0.0057219593
121	0x3d9ab772	0.07554521
122	0x3c970062	0.0184328
123	0x3db5620e	0.08856593
124	0x3c096393	0.008385557
125	0x3d869965	0.065722264
126	0x3b6c7ed3	0.0036086335
127	0x3bb86d73	0.0056282817
128	0x3c1ffb16	0.009764453
129	0x3d7e9b29	0.06215969
130	0xbafed3bd	-0.0019441765
131	0xbd4f7d33	-0.05065651
132	0xbd578bfa	-0.052623726
133	0xbd9089ae	-0.0705751
134	0xbd064833	-0.0327837
135	0xbd08f28e	-0.033434443
136	0xbd9cc364	-0.07654455
137	0x3c09f9be	0.00842136
138	0x3ce713d9	0.028207706
139	0xbca5ad4c	-0.020224236
140	0xbca173ec	-0.019708596
141	0x3cd51a28	0.026013449
142	0x3d41de20	0.047330976
143	0x3c8e419e	0.017365273
144	0xbca393ba	-0.019967902
145	0xbda1991f	-0.07890534
146	0xbbabfbe1	-0.005248532
147	0xbc1e79a8	-0.00967256
148	0x3d255639	0.04036543
149	0x3d29e858	0.041481346
150	0x3dcca4a0	0.09992337
151	0x3d319783	0.043357383
152	0xbb873b28	-0.004126925
153	0x3d1c3c41	0.0381434
154	0x3dd0e0ba	0.10199113
155	0x3d4f1929	0.050561104
156	0x3d5a5ac2	0.05330921
157	0x3d9abee7	0.07555943
158	0x3de5d5f8	0.11222452
159	0x3d4d2499	0.05008373
160	0xbd886fc1	-0.0666194
161	0x3ce5067f	0.0279572
162	0x3c915a24	0.017743178
163	0xbd9f84ca	-0.077889994
164	0xbd3af633	-0.04564495
165	0xbd85321b	-0.065036975
166	0x3cc93e35	0.024565795
167	0x3d2b86c1	0.04187656
168	0xbc72db04	-0.014822725
169	0x3c9f156c	0.019419394
170	0xb970ddaf	-0.00022970767
171	0x3c5f671a	0.013635421
172	0xbd169a8b	-0.036768477
173	0xbd0d3b85	-0.03448059
174	0xba88cc15	-0.0010436798
175	0xbc0ef0f6	-0.008724442
176	0x3bc434c8	0.0059877373
177	0xbde64bbe	-0.112449154
178	0x3c8c4e8b	0.017127296
179	0xbd223adb	-0.03960691
180	0xbdb9c4d5	-0.09070746
181	0x3d9cba72	0.07652749
182	0x3d86c755	0.06580988
183	0xbd145217	-0.0362111
184	0x3c9e9807	0.019359602
185	0x3d1fda13	0.03902633
186	0x3dc94568	0.09827691
187	0x3d36908b	0.04457144
188	0x3d2f8073	0.042847108
189	0x3dc1d56a	0.094645336
190	0x3e0d5d06	0.13805017
191	0xbcb3d339	-0.021951305
192	0xbe1c0c09	-0.15238966
193	0xbd8f5cf9	-0.07000155
194	0xbd5b37a8	-0.053519875
195	0x3bfacbe6	0.007653701
196	0xbc80bc04	-0.015714653
197	0x3a28f80e	0.00064456544
198	0xbcc1cb4b	-0.023656508
199	0xbbf2dca8	-0.007411558
200	0xbca618ef	-0.020275561
201	0x3ca5b9a6	0.020230126
202	0x3cc85f1b	0.024459412
203	0xbcc6ea8e	-0.024281766
204	0xbd86c787	-0.065810256
205	0x3cce3a55	0.0251743
206	0x3d3d85a5	0.04627003
207	0x3d34d01e	0.04414379
208	0xbca55466	-0.020181846
209	0x3d579400	0.05263138
210	0x3b805c3f	0.0039172466
211	0xbc297d8a	-0.010344872
212	0xbc6e9f21	-0.0145643065
213	0x3dbaa99a	0.0911438
214	0x3e014524	0.12624031
215	0x3d685771	0.056724016
216	0x3c46fbf5	0.012145032
217	0xba046284	-0.00050500804
218	0x3ca4b50d	0.020105863
219	0x3d824caf	0.063622825
220	0xbc6dd7fa	-0.014516825
221	0xbdba2427	-0.09088927
222	0xbd824b0e	-0.06361972
223	0xbb28d5ec	-0.0025762273
224	0xbb1b1874	-0.0023665698
225	0x3c52edca	0.012874076
226	0x3b5207ae	0.0032048034
227	0x3d44e1f5	0.048067052
228	0xbc9ac380	-0.01889205
229	0xbd2a8737	-0.041632857
230	0x3d0d4ec0	0.03449893
231	0xbd603a8e	-0.054743342
232	0x3be13941	0.0068732803
233	0x3d61d7e6	0.055137537
234	0xb91b11fb	-0.0001478865
235	0xbccaa9e4	-0.024739213
236	0x3d74e141	0.05978513
237	0x3c286ae7	0.010279394
238	0x3db55324	0.088537484
239	0x3de31460	0.110878706
240	0x3e5b459f	0.21413277
241	0x3dc31df4	0.095271975
242	0x3d87551a	0.06608029
243	0xba9ba746	-0.0011875413
244	0x3d63fe46	0.055662416
245	0x3c382e8f	0.011241569
246	0x3cb8bc42	0.022550706
247	0x3e176bfa	0.14787284
248	0x3d33a619	0.043859575
249	0xbe108aa7	-0.14115392
250	0xbd925d6c	-0.07146725
251	0xbb91ffe9	-0.0044555557
252	0x3caab777	0.020839436
253	0xbc15e17b	-0.009147997
254	0xbb6f1632	-0.0036481735
255	0x3b89b8e6	0.00420295

bias f4 [10]
0	0xbcddc9e3	-0.027073806
1	0xbd6e199f	-0.058129903
2	0x3d9797bf	0.0740199
3	0x3da22d96	0.07918851
4	0xbd6f1497	-0.058369245
5	0x3ddc9b4d	0.10771809
6	0xbd099b7c	-0.033595547
7	0xbc0bd045	-0.008533542
8	0xbcbf5690	-0.023356706
9	0xbd06c3e0	-0.032901645
